NCSN.pth (torch, 139804 bytes, 9 tensors)

W f4 [64]
0	0x42009184	32.142105
1	0x423d5698	47.334564
2	0xc2248f96	-41.14022
3	0x419bf69c	19.495415
4	0xc223e5d1	-40.97443
5	0x41dbe25b	27.485525
6	0x410e845e	8.907316
7	0x414618c4	12.381046
8	0xc18b5ca4	-17.420235
9	0xc2201f4c	-40.030563
10	0xc25c0f03	-55.01466
11	0xc1f899da	-31.075123
12	0x41b8a287	23.07936
13	0xc1cd8382	-25.689213
14	0xc1013c24	-8.077183
15	0x40ba1734	5.8153324
16	0x41286371	10.524278
17	0x428148e9	64.6424
18	0x4277bfb7	61.93722
19	0x404eb26c	3.22964
20	0x3eb195e4	0.3468467
21	0xc1f2eb16	-30.364788
22	0xc1a46af4	-20.552223
23	0xc155f7b3	-13.372973
24	0xc081edfb	-4.0603004
25	0xc2845678	-66.168884
26	0xc12f629b	-10.961574
27	0x41cdae7d	25.7102
28	0xc1148f53	-9.284991
29	0xc1ad3e2d	-21.65536
30	0x423d5365	47.33144
31	0xc0c067c8	-6.0126686
32	0x419c330b	19.524923
33	0xc1758753	-15.345538
34	0x41de75b2	27.807468
35	0xc163d60f	-14.23976
36	0x421b9eb6	38.90499
37	0xc1fc5087	-31.53932
38	0x40a0da58	5.0266533
39	0xc23bdf9b	-46.968365
40	0x420451c5	33.079853
41	0xc10b44a6	-8.70426
42	0x41f01486	30.010021
43	0xbfb9a598	-1.450366
44	0x41111517	9.067649
45	0xc1b6fc1a	-22.873096
46	0xc29aa2ca	-77.31795
47	0xc2a08719	-80.26386
48	0xc10a08cf	-8.627151
49	0xc258a1aa	-54.157875
50	0xbe0056c9	-0.12533106
51	0x41db0988	27.379654
52	0x40c798ba	6.2373934
53	0x420e06e0	35.506714
54	0xc0e84b3b	-7.2591834
55	0x41d8cdb3	27.10044
56	0xc09d4c47	-4.915561
57	0x420876fa	34.116188
58	0x41a9f25e	21.243343
59	0xc19cf477	-19.619368
60	0x4135a696	11.35317
61	0x41e13c72	28.154514
62	0x423aa051	46.65656
63	0x40f75fe2	7.7304544

weight f4 [128, 2]
0	0x3efbc0fe	0.4917068
1	0x3f4b9242	0.79520047
2	0xbed9207c	-0.42407596
3	0xbf912e54	-1.1342263
4	0xbd083c60	-0.033260703
5	0xbc155be0	-0.009116143
6	0xbf528b84	-0.82244134
7	0x3f506b27	0.814135
8	0xbf01cbc4	-0.50701547
9	0x3eb50454	0.35354865
10	0xbd3524e3	-0.04422463
11	0x3c4c58c6	0.012472337
12	0xbefd1e07	-0.49436972
13	0x3e316936	0.17325291
14	0xbe5d12ce	-0.21589205
15	0xbe0c35f9	-0.13692464
16	0xbe524830	-0.2053535
17	0xbece739b	-0.40322575
18	0xbee24aca	-0.44197685
19	0xbe8b7570	-0.27238035
20	0xbf1a4361	-0.6025906
21	0x3f5be2a0	0.8589268
22	0xbf6cc105	-0.92482024
23	0xbf16844d	-0.58795625
24	0x3e670f1e	0.2256436
25	0xbdd832e9	-0.10556585
26	0x3f63c87b	0.88977784
27	0xbf05f7df	-0.52331346
28	0xbe9cdb95	-0.30636278
29	0xbe325955	-0.1741689
30	0xbe7ff149	-0.24994387
31	0xbe9d7071	-0.30749848
32	0xbdcebae9	-0.10094244
33	0xbeab9dca	-0.3351882
34	0x3ec5f93d	0.38666716
35	0x3e6c7be0	0.2309413
36	0xbbc78415	-0.0060887435
37	0xbdd6b30b	-0.104833685
38	0xbf123443	-0.57110995
39	0x3f630905	0.8868564
40	0xbe6a4874	-0.22879201
41	0x3dd8457f	0.1056013
42	0x3e2df115	0.16986497
43	0xbe04dd42	-0.12975028
44	0xbdbff687	-0.09373193
45	0xbe0fa829	-0.14028992
46	0xbf560c70	-0.8361273
47	0x3ec0fd15	0.37693086
48	0xbe4b6b6a	-0.19865194
49	0x3e5068aa	0.20352426
50	0xbeca94f1	-0.39566758
51	0xbe58dbc1	-0.2117758
52	0xbf197b71	-0.5995398
53	0xbdc8baf6	-0.09801285
54	0xbf17e116	-0.5932783
55	0xbd518c7b	-0.051159363
56	0xbf1c2729	-0.60997254
57	0xbdd892f4	-0.10574904
58	0xbf22c3dd	-0.63580114
59	0x3ecb8b6c	0.39754808
60	0xbea2aa99	-0.3177078
61	0xbe43d267	-0.19123231
62	0xbe9f7eaa	-0.31151325
63	0xbee20d53	-0.4415079
64	0x3ea16040	0.31518745
65	0x3e16f6c1	0.14742567
66	0xbe89496f	-0.26813838
67	0xbed46e91	-0.41490605
68	0xbd89b020	-0.06723046
69	0xbcfbba62	-0.030728523
70	0x3eff9b73	0.49923286
71	0xbf17dc29	-0.5932031
72	0x3e2ba80b	0.16763322
73	0x3f4b4a4c	0.79410243
74	0xbcd50174	-0.02600167
75	0xbef1d8bf	-0.47235677
76	0xbeb19f79	-0.3469198
77	0xbe55f5b8	-0.20894516
78	0x3f40e43b	0.7534825
79	0xbf2e07ef	-0.67980856
80	0x3c7dd4b1	0.015492604
81	0xbe18bcc9	-0.14915766
82	0xbe9f7bbc	-0.3114909
83	0xbf0e41e5	-0.555693
84	0xbea4917a	-0.3214224
85	0x3c504e78	0.012714021
86	0xbe1ecad5	-0.15507062
87	0xbc707ee2	-0.014678689
88	0xbd8b3ce5	-0.06798724
89	0xbe5f4796	-0.21804652
90	0xbf0fec0e	-0.56219566
91	0xbe65f0e0	-0.22455168
92	0x3f43d865	0.76502067
93	0x3f5217da	0.82067645
94	0x3f0ef4ab	0.55842084
95	0xbeb520b6	-0.3537652
96	0xbf31c818	-0.69445944
97	0x3ef632aa	0.4808553
98	0xbe110eb1	-0.1416576
99	0x3d1abce3	0.037777793
100	0x3f5665d0	0.83749104
101	0xbee2eb52	-0.4432016
102	0xbec440e2	-0.38330752
103	0xbeb7aa70	-0.3587222
104	0xbf1f4687	-0.6221699
105	0x3c8d597f	0.01725459
106	0xbf01f0a7	-0.5075783
107	0x3e92cb36	0.28670663
108	0x3ec9e52d	0.3943266
109	0xbf1ff813	-0.62487906
110	0xbeae4ced	-0.34043065
111	0xbe7df595	-0.24800713
112	0x3d2709b1	0.040780727
113	0x3d11a504	0.03555776
114	0xbe7f8cf9	-0.2495612
115	0x3f0f48ca	0.5597044
116	0x3ebcc600	0.36869812
117	0xba045678	-0.0005048285
118	0x3f1b3a7c	0.60636115
119	0x3b37d652	0.002805133
120	0xbb71cb7a	-0.0036894963
121	0xbe866449	-0.26248387
122	0xbf0713ed	-0.5276478
123	0xbef58fcf	-0.4796128
124	0x3eae8b18	0.34090495
125	0x3c54d53e	0.012990294
126	0xbda77343	-0.08176281
127	0xbe968e9c	-0.29405677
128	0x3dad46a6	0.08460741
129	0xbecc8aa8	-0.39949536
130	0xbf2ea3f9	-0.6821895
131	0x3ecd8055	0.40136972
132	0x3e80d57c	0.25162876
133	0xbf1a149d	-0.60187703
134	0xbecd27a9	-0.4006932
135	0x3da33fb5	0.079711355
136	0xbf083e44	-0.5322001
137	0xbf0da13b	-0.55324143
138	0x3ecfc761	0.40581802
139	0xbe5527d9	-0.20815982
140	0xbd923cba	-0.07140489
141	0xbe748599	-0.23879088
142	0xbec02bdc	-0.37533462
143	0xbd5f692f	-0.05454367
144	0xbe38f6dd	-0.18062921
145	0xbf30d1b6	-0.69069993
146	0xbe608cad	-0.21928664
147	0xbebdc2dc	-0.37062728
148	0x3f2e2651	0.68027216
149	0x3f19738a	0.59941924
150	0xbef77ffa	-0.48339826
151	0xbefac6fa	-0.48979932
152	0x3f0abac4	0.5419123
153	0x3f09606d	0.5366276
154	0xbd51af9f	-0.051192876
155	0xbe35010c	-0.1767618
156	0x3ce87b5d	0.028379137
157	0xbb9763fe	-0.0046200743
158	0x3edc057e	0.4297294
159	0x3f57fb96	0.84368265
160	0x3ec1ac17	0.37826607
161	0xbe953cd0	-0.2914796
162	0x3ec975e9	0.3934777
163	0xbe747d1a	-0.23875847
164	0xbe316f03	-0.17327504
165	0xbdb42ca8	-0.0879758
166	0xbe62c1d2	-0.22144249
167	0xbeb66147	-0.35621092
168	0x3ef7b579	0.4838064
169	0x3e191846	0.14950666
170	0xbed13fb8	-0.40868926
171	0xbe7308b4	-0.23733789
172	0xbf3f9983	-0.74843615
173	0x3f4491c7	0.7678494
174	0xbf150d8d	-0.582238
175	0xbe5d0ef7	-0.2158774
176	0xbe83a608	-0.2571261
177	0xbeb5d7a0	-0.3551607
178	0x3c0eb643	0.008710447
179	0xbe03a9cb	-0.1285774
180	0xbd2b47d8	-0.041816562
181	0x3d9229d5	0.07136885
182	0xbe891d6d	-0.26780263
183	0xbcbeb3a0	-0.023279011
184	0x3e9b4840	0.3032856
185	0xbe776e49	-0.24163164
186	0x3e446523	0.19179206
187	0x3f41e443	0.75738925
188	0xbda34f1c	-0.07974073
189	0x3f202af5	0.6256555
190	0xbecaefe3	-0.39636144
191	0x3f26c949	0.65150887
192	0xbce090e6	-0.027412843
193	0xbee61393	-0.4493681
194	0xbed2fec0	-0.41209984
195	0x3e85dd70	0.26145506
196	0xbef478bd	-0.47748366
197	0x3e8a095a	0.2696026
198	0xbdac60fb	-0.08416935
199	0x3dcdfcc3	0.10057976
200	0x3c0f73ad	0.008755607
201	0xbe38a1a0	-0.18030405
202	0x3f09d13f	0.5383491
203	0xbf0e5187	-0.5559315
204	0xbd55000f	-0.05200201
205	0xbf3d67ca	-0.73986495
206	0x3e99062b	0.29887518
207	0x3ea6415a	0.32471734
208	0xbede7317	-0.43447182
209	0xbe113b34	-0.1418274
210	0xbc53902b	-0.01291279
211	0x3e60f519	0.21968497
212	0xbebd591d	-0.3698205
213	0xbf2bc68b	-0.6709983
214	0x3efee1db	0.4978169
215	0xbeebdef8	-0.4606855
216	0x3c5fc9f6	0.013658991
217	0x3f626de8	0.88448954
218	0x3e963245	0.29335228
219	0x3df915bb	0.12162348
220	0x3e1cc26b	0.1530854
221	0xbe9a5881	-0.30145648
222	0xbe827278	-0.25477958
223	0xbe637c5a	-0.22215405
224	0xbea4bba0	-0.32174397
225	0x3e803631	0.25041345
226	0xbec055c6	-0.3756544
227	0xbd9737e1	-0.07383705
228	0x3f3d22a0	0.7388096
229	0xbeeffd5b	-0.46872982
230	0xbf3d5f8b	-0.7397391
231	0x3ed5487b	0.4165686
232	0xbecd8b40	-0.40145302
233	0xbed73ae7	-0.42037126
234	0xbedbd26b	-0.42933974
235	0xbee1b3a5	-0.4408237
236	0x3ceed733	0.02915535
237	0xbf18f37a	-0.59746516
238	0xbed78152	-0.4209085
239	0x3eec60a1	0.46167472
240	0xbdec4012	-0.11535658
241	0xbe098807	-0.13430797
242	0xbe7a91cb	-0.24469678
243	0xbde3eb05	-0.11128811
244	0x3f777f25	0.9667838
245	0x3f8a7521	1.0816995
246	0xbe747ebe	-0.23876473
247	0xbf217fa0	-0.63085365
248	0x3f39b6ab	0.72544354
249	0x3e1bf4fd	0.15230174
250	0x3de6b762	0.11265446
251	0xbec10203	-0.37696847
252	0xbd44edcc	-0.048078343
253	0xbec341cf	-0.38136145
254	0xbf5d8bc6	-0.865414
255	0x3f1d2db5	0.6139787

bias f4 [128]
0	0xbfa47f01	-1.2851259
1	0x3d6cbe4e	0.057798676
2	0xbf0703d7	-0.52740234
3	0x3dbe7896	0.09300344
4	0x3e5cf69d	0.2157845
5	0xbe8c865a	-0.27446252
6	0xbe176801	-0.14785768
7	0x3f704379	0.93852955
8	0x3f6bcc62	0.9210874
9	0x3f00b6f9	0.50279194
10	0xbf906417	-1.1280545
11	0x3ed868ec	0.4226755
12	0xbe92c8c0	-0.28668785
13	0xbe28f7a0	-0.16500711
14	0xbe071b69	-0.1319405
15	0xbede130c	-0.43373907
16	0x3e17bf6c	0.14819115
17	0xbe3744cb	-0.17897336
18	0xbe0ababe	-0.13547799
19	0x3d70dd83	0.058805
20	0x3f4b2905	0.79359466
21	0xbf1bef9c	-0.6091249
22	0x3e777a08	0.24167645
23	0xbf6e2b13	-0.93034476
24	0xbe681d88	-0.22667515
25	0xbf982237	-1.1885442
26	0xbd5c18ff	-0.053734776
27	0xbcc360c6	-0.023849856
28	0x3efe99c1	0.4972668
29	0xbea4d875	-0.32196394
30	0xbe17f9d6	-0.14841399
31	0x3f91dcef	1.1395549
32	0xbfac911e	-1.3481786
33	0x3f7b8b84	0.9825976
34	0xbf6dbbc7	-0.9286465
35	0xbe3c026b	-0.18360297
36	0xbe051497	-0.12996136
37	0x3ee98235	0.45607153
38	0xbf5e5a3e	-0.8685645
39	0x3e5fd734	0.21859437
40	0x3eb0cd3a	0.34531575
41	0x3f6fe003	0.9370119
42	0xbb9b71e3	-0.004743801
43	0x3eb7d0ea	0.35901576
44	0xbe8eda20	-0.2790079
45	0x3f4e8b4a	0.8068129
46	0xbf6df672	-0.9295417
47	0xbf823c9c	-1.0174747
48	0x3ec428f7	0.38312504
49	0x3e20b30d	0.15693302
50	0x3bbd1273	0.0057700216
51	0x3f923419	1.1422149
52	0xbe8877f0	-0.26654005
53	0xbea6ac88	-0.32553506
54	0x3ee8e64f	0.45488212
55	0x3e527ca5	0.2055536
56	0x3d7a8627	0.061163094
57	0xbf491445	-0.78546554
58	0xbf9f2bcc	-1.2435241
59	0xbedc6dd6	-0.43052548
60	0xbf4457a5	-0.76696235
61	0x3f86b629	1.0524341
62	0xbf876218	-1.0576811
63	0x3e250fd3	0.16119318
64	0x3e4d3d74	0.20042974
65	0xbd0441d0	-0.032289326
66	0x3f13ebf3	0.57781905
67	0xbf4fa4d0	-0.8111086
68	0xbeb1d172	-0.34730107
69	0xbf45537a	-0.770805
70	0x3d82b08c	0.0638133
71	0x3e30b4da	0.1725649
72	0x3f4e8b44	0.8068125
73	0xbf5cdaf2	-0.86271584
74	0xbf707399	-0.9392639
75	0x3df0b3c6	0.11753039
76	0xbf78962e	-0.97104156
77	0x3f00ccef	0.50312704
78	0xbe9b5a6a	-0.30342418
79	0xbde45ecd	-0.11150894
80	0xbf268c24	-0.6505759
81	0x3e3703ab	0.17872493
82	0x3eb460cb	0.35230097
83	0x3f8be60a	1.0929577
84	0x3c21e34c	0.009880852
85	0xbea57e36	-0.32322854
86	0xbe16a8d1	-0.14712836
87	0x3f2c14b5	0.67219096
88	0x3f137509	0.57600456
89	0x3ca0bedb	0.019622257
90	0xbed787db	-0.42095837
91	0xbfb9c29e	-1.4512517
92	0xbf02406a	-0.5087954
93	0xbf08d945	-0.53456527
94	0xbfaa725a	-1.3316147
95	0xbe720877	-0.23636042
96	0xbf533539	-0.82503086
97	0x3ee0ebef	0.43930003
98	0xbe9531a7	-0.29139444
99	0x3e30c49a	0.17262498
100	0xbeb1b4a3	-0.34708127
101	0xbf15d9fb	-0.58535737
102	0xbf9ae352	-1.2100623
103	0xbe83edcc	-0.25767362
104	0x3f2a8da6	0.6662239
105	0xbe8cb269	-0.27479866
106	0x3efb0195	0.49024644
107	0x3f220852	0.63293946
108	0xbc6b6645	-0.014367645
109	0xbf5700a7	-0.8398537
110	0xbd14de76	-0.036344968
111	0xbfc9dc74	-1.5770402
112	0xbf425d0b	-0.7592322
113	0xbca84345	-0.02053989
114	0x3ea5d503	0.32389078
115	0x3ec738e2	0.38910586
116	0xbe08990a	-0.1333963
117	0x3f56e2e3	0.8393995
118	0x3f2a8da2	0.66622365
119	0xbefad9c9	-0.48994282
120	0xbe8c60b1	-0.2741752
121	0xbd624c3f	-0.055248495
122	0xbf4bdeb6	-0.79636705
123	0x3f384ef3	0.71995467
124	0xbf3f8358	-0.7480979
125	0x3df48983	0.11940291
126	0x3ea5c912	0.32379967
127	0xbf4ff9c5	-0.81240493

weight f4 [128, 128]
0	0xbe5ffb71	-0.21873261
1	0xbea18145	-0.31543937
2	0xbe1838ee	-0.14865467
3	0xbd2bbff3	-0.041931104
4	0xbd9538bc	-0.07286212
5	0x3dbd66fd	0.09248159
6	0x3d6cfe89	0.05785993
7	0xbd32aace	-0.043619923
8	0xbc959294	-0.01825837
9	0xbccf7570	-0.025324553
10	0xbe3ea254	-0.18616611
11	0xbe49b229	-0.19696869
12	0xbe89e815	-0.26934877
13	0xbee09534	-0.43863833
14	0xbdcba9fc	-0.09944531
15	0xbe40e895	-0.18838723
16	0x3c9b8123	0.018982476
17	0xbe21b6d5	-0.15792401
18	0xbe3d899c	-0.18509525
19	0xbe1361db	-0.14392798
20	0x3e141a2e	0.14463112
21	0xbdbdbf27	-0.09264975
22	0xbed97028	-0.4246838
23	0xbd89f3f7	-0.06735986
24	0xbdecdc76	-0.11565487
25	0xbd0b3763	-0.033988368
26	0x3cdc391e	0.026882704
27	0xbd673fd6	-0.056457363
28	0xbe50deaf	-0.20397447
29	0xbdfec86c	-0.12440571
30	0xbc8acbf9	-0.016942965
31	0x3d03dc71	0.03219265
32	0xbe499aea	-0.19688001
33	0x3c19aaed	0.009379131
34	0x3da48af8	0.08034319
35	0xbed877c9	-0.4227889
36	0xbcd7ceda	-0.026343752
37	0xbe53edbc	-0.20696157
38	0xbbd8727b	-0.006605444
39	0xbf0eabc0	-0.5573082
40	0xbdc0c830	-0.09413183
41	0xbd46d93e	-0.048547022
42	0xbefbed47	-0.49204466
43	0xbd8cd197	-0.068759136
44	0xbdb942b6	-0.09045927
45	0x3d44f6e6	0.048087023
46	0xbdcf818d	-0.10132132
47	0xbe807678	-0.25090384
48	0x3b8db014	0.0043239687
49	0xbe11d2f4	-0.14240628
50	0xbf04d186	-0.5188221
51	0x3e683824	0.22677666
52	0xbeb9e379	-0.3630636
53	0x3c98ad2e	0.018637266
54	0xbec40b66	-0.38289946
55	0xbc99f215	-0.018792192
56	0xbd1e7a0b	-0.038690608
57	0xbe0ff445	-0.14058025
58	0xbbf29726	-0.007403272
59	0xbe19fdce	-0.15038225
60	0xbe069fe8	-0.13146937
61	0x3e19e101	0.15027238
62	0xbe07ff2c	-0.13280934
63	0xbe44c585	-0.19215973
64	0xbe8373b9	-0.25674227
65	0xbbe89964	-0.0070983637
66	0xbe115d25	-0.14195688
67	0xbe32735e	-0.17426822
68	0xbe00c978	-0.12576854
69	0xbe2da799	-0.16958465
70	0xbdd80ebe	-0.10549687
71	0xbdfb6c49	-0.12276513
72	0xbe9ad381	-0.3023949
73	0xbe391bba	-0.18076983
74	0xbe3acca3	-0.18242125
75	0x3d33b67b	0.0438752
76	0xbe401410	-0.18757653
77	0xbe176666	-0.14785156
78	0xbe0a43ca	-0.13502422
79	0xbde33553	-0.11094155
80	0xbe69fc5b	-0.22850172
81	0xbebcf2d3	-0.3690401
82	0x3da78fb7	0.08181708
83	0xbe8f0b0b	-0.27938113
84	0x3d8c2ac8	0.068440974
85	0x3e6be85d	0.23037858
86	0x3da372b1	0.0798086
87	0x3dd95303	0.10611536
88	0x3d9d3d5e	0.076777205
89	0xbe8e789d	-0.27826396
90	0xbe46407c	-0.19360536
91	0xbe64800a	-0.22314468
92	0xbe8ac2d9	-0.27101782
93	0xbe6d25f8	-0.23159015
94	0xbda8c523	-0.08240726
95	0xbd531926	-0.051537655
96	0xbdf59563	-0.11991384
97	0x3d8363e2	0.064155355
98	0xbd05b7d6	-0.032646023
99	0xbe8e6faf	-0.27819583
100	0xbdeb97e2	-0.11503579
101	0xbeeb3a37	-0.45942852
102	0xbea916ed	-0.33025303
103	0x3d132272	0.03592152
104	0xbe66d6d6	-0.22542891
105	0xbdf1c53c	-0.118051976
106	0xbd1fadb0	-0.038984
107	0xbf141457	-0.57843536
108	0xbd4564c6	-0.04819181
109	0xbdb5be9b	-0.08874246
110	0xbe58fe5c	-0.2119078
111	0xbe2376cf	-0.1596329
112	0xbdcc4e95	-0.09975926
113	0x3e89047d	0.26761237
114	0xbea53c04	-0.3227235
115	0x3d5fa8f1	0.054604474
116	0xbd5c8e4d	-0.053846646
117	0x3de75d45	0.112970866
118	0xbe00c3cf	-0.12574695
119	0x3d7feeec	0.062483713
120	0xbe14a0e3	-0.14514498
121	0x3d4cd54f	0.050008114
122	0xbe8a05b1	-0.26957467
123	0xbd9ef9b4	-0.07762471
124	0xbed7b0b0	-0.4212699
125	0xbebd5264	-0.36976922
126	0xbdec5e6c	-0.11541447
127	0xbdfab6b8	-0.12241882
128	0xbdec9f24	-0.11553791
129	0xbe37b26b	-0.17939155
130	0xbe553a4e	-0.20823023
131	0xbe2becbb	-0.16789524
132	0xbe3c8658	-0.18410623
133	0xbe14d875	-0.14535697
134	0xbd095ede	-0.033537738
135	0xbe5914dd	-0.21199365
136	0xbdbcd3ea	-0.09220107
137	0xbd53da79	-0.051722024
138	0xbe263951	-0.16232802
139	0xbda5ff71	-0.08105362
140	0xbe5cf9ab	-0.21579616
141	0xbdfe6251	-0.12421096
142	0xbe27c202	-0.16382602
143	0xbe4b2032	-0.198365
144	0xbd55fe74	-0.05224462
145	0xbd9c2bbf	-0.076255314
146	0xbe54a2cb	-0.20765226
147	0xbe56bc66	-0.20970306
148	0xbd885736	-0.06657259
149	0xbde7a2d0	-0.11310351
150	0xbdc65c96	-0.09685628
151	0xbd64f996	-0.055902086
152	0xbdcdba52	-0.100453034
153	0xbd832b9c	-0.06404802
154	0xbe22bd88	-0.15892613
155	0xbd4b6220	-0.049654126
156	0xbe0934f9	-0.13399114
157	0xbd87778d	-0.066145994
158	0xbe29214b	-0.16516607
159	0xbe831355	-0.25600687
160	0xbd26a178	-0.040681332
161	0xbeb5f553	-0.3553873
162	0xbc036099	-0.008018636
163	0xbe8a6217	-0.27027962
164	0xbdbea6ec	-0.093091816
165	0xbe6a6a86	-0.22892198
166	0xbe3d6c1e	-0.18498275
167	0xbe9d39c5	-0.30708137
168	0xbdac8036	-0.08422892
169	0xbe288a25	-0.16458948
170	0xbde851f4	-0.11343756
171	0xbe644abd	-0.22294135
172	0xbe5076e5	-0.20357855
173	0xbe5c1957	-0.21494041
174	0xbdd688ca	-0.10475309
175	0xbddf36d8	-0.108991325
176	0xbd8fc33f	-0.07019662
177	0xbdee3f47	-0.11633163
178	0xbe12cb79	-0.14335431
179	0xbe278d71	-0.1636255
180	0xbd8eb51c	-0.069681376
181	0xbb8119fb	-0.0039398647
182	0xbd3b9732	-0.045798488
183	0xbe0eafa0	-0.13934183
184	0xbd4141b5	-0.047181804
185	0xbe79de99	-0.2440132
186	0xbdc4da46	-0.09611945
187	0xbe03ef5a	-0.12884274
188	0xbd89fd02	-0.067377105
189	0xbd5c35cb	-0.05376224
190	0xbe0a8364	-0.13526684
191	0xbe52968c	-0.20565242
192	0xbe17434a	-0.14771762
193	0xbdd7e9ce	-0.105426416
194	0xbe247864	-0.1606155
195	0xbe1e31a5	-0.15448625
196	0xbe3f281c	-0.18667644
197	0xbe275fb6	-0.16345105
198	0xbdd179ae	-0.10228287
199	0xbe4de827	-0.2010809
200	0xbe8d178e	-0.27557033
201	0xbda88fe7	-0.08230572
202	0xbe47994a	-0.19492069
203	0xbd925264	-0.07144621
204	0xbe003706	-0.1252099
205	0xbe59989c	-0.21249622
206	0xbe3ce01b	-0.18444864
207	0xbe42a473	-0.19008045
208	0xbe4f10e7	-0.20221291
209	0xbe56198e	-0.20908186
210	0xbdfebf4e	-0.12438832
211	0xbe81f9cd	-0.25385895
212	0xbe3db0a6	-0.18524417
213	0xbde7b91d	-0.113146044
214	0xbdd82fae	-0.10555969
215	0xbdcac0c7	-0.099000506
216	0xbe11d3ed	-0.14241
217	0xbe7c35a1	-0.24629833
218	0xbd932c8c	-0.07186231
219	0xbd82a230	-0.06378591
220	0xbe29b9e2	-0.16574815
221	0xbe1ac864	-0.15115505
222	0xbd885551	-0.06656898
223	0xbdff021c	-0.12451574
224	0xbe18e6e1	-0.14931823
225	0xbd61bf52	-0.055114098
226	0xbda41e12	-0.08013548
227	0xbda9252f	-0.08259045
228	0xbe84511d	-0.25843135
229	0xbe071fe9	-0.13195767
230	0xbe56fa83	-0.20994
231	0xbe2319fa	-0.15927878
232	0xbe2fd7d3	-0.17172174
233	0x3cfd1f5b	0.03089874
234	0xbe81b295	-0.2533156
235	0xbe829b24	-0.25508988
236	0xbcec0c0b	-0.028814336
237	0x3d2e606c	0.042572424
238	0xbdbbbfdb	-0.09167453
239	0xbe18ee2d	-0.14934607
240	0xbe10b5d1	-0.14131857
241	0xbddda741	-0.10822917
242	0xbe6bc7e9	-0.23025478
243	0xbdbaace2	-0.09115006
244	0xbd784d5c	-0.06062065
245	0xbdbfd2ff	-0.09366416
246	0xbe603b02	-0.2189751
247	0xbde53ce8	-0.111932576
248	0xbe19a3e3	-0.15003924
249	0xbd10bfec	-0.03533928
250	0xbe3c3e50	-0.18383145
251	0xbe777525	-0.24165781
252	0xbe1dee34	-0.15422899
253	0xbdcc6194	-0.09979549
254	0xbea9dc98	-0.33176112
255	0xbd495451	-0.049152676

bias f4 [128]
0	0xbdde949c	-0.10868189
1	0xbdc54b5b	-0.096335135
2	0x3dd5db47	0.104422145
3	0xbde04177	-0.109499864
4	0x3cc1eb71	0.023671838
5	0x3e4259f2	0.18979624
6	0xbb5beb14	-0.0033556866
7	0xbc8c8979	-0.017155396
8	0xbd6b54e8	-0.05745402
9	0xbdf20a02	-0.11818315
10	0x3e1be842	0.15225318
11	0xbd6cabac	-0.057780907
12	0xbd09ba79	-0.0336251
13	0xbe4f37fb	-0.20236199
14	0x3de209ed	0.110370494
15	0xbf2fb749	-0.68639046
16	0xbc9a3c5b	-0.018827608
17	0x3db1f55c	0.08689377
18	0xbe214008	-0.15747082
19	0x3ea665ae	0.3249945
20	0x3e42322d	0.18964453
21	0x3c8f19c3	0.017468339
22	0x3dbcfad0	0.09227526
23	0xbe65deae	-0.22448227
24	0xbd11cdbf	-0.035596605
25	0x3ce7e88f	0.028309135
26	0xbe174357	-0.14771782
27	0x3c89e252	0.01683155
28	0x3e94a67e	0.29033273
29	0x3c1c28d3	0.009531218
30	0xbd08f770	-0.0334391
31	0xbd976a23	-0.07393291
32	0x3b854b23	0.004067795
33	0x3c752a32	0.014963673
34	0xbdb66fc3	-0.089080356
35	0xbb6a9b0c	-0.0035797982
36	0xbe0d4865	-0.13797148
37	0xbdf8c19b	-0.12146302
38	0x3dddd3a6	0.10831384
39	0xbe923cce	-0.28562015
40	0x3c89956a	0.016794879
41	0x3debff6b	0.115233265
42	0x3e2b34a6	0.16719303
43	0x3dffaa4b	0.12483653
44	0x3da473ff	0.08029937
45	0x3d59c3ca	0.053165235
46	0x3d5eefca	0.0544279
47	0xbdab1d45	-0.08355192
48	0x3cd0af80	0.02547431
49	0x3d58914a	0.052872933
50	0xbda12c87	-0.07869821
51	0x3d4afeaf	0.04955929
52	0x3e3d4a72	0.1848543
53	0x3e5c3448	0.21504319
54	0x3e067896	0.13131937
55	0x3e10c0ce	0.14136049
56	0x3e015f82	0.1263409
57	0xbdd7206b	-0.1050423
58	0xbd4a1373	-0.049334954
59	0x3cb6d02e	0.022316065
60	0xbcd16c0b	-0.025564214
61	0x3d0f1b8e	0.034938388
62	0x3e5565b5	0.2083958
63	0x3b17479f	0.002308346
64	0xbdb8fae4	-0.090322286
65	0xbe270268	-0.16309512
66	0xbdbeb215	-0.0931131
67	0x3d0dd4ff	0.034626957
68	0x3dcb01f1	0.0991248
69	0xbe070445	-0.13185222
70	0x3e7756d2	0.24154213
71	0xbe0dbf39	-0.13842477
72	0xbc151d39	-0.0091012055
73	0xbd54d50a	-0.051960982
74	0x3e9459e0	0.2897482
75	0xbea057de	-0.31317037
76	0x3d47d27c	0.048784718
77	0xbf16c04a	-0.5888716
78	0x3e9847cd	0.2974228
79	0x3d6c1801	0.05764008
80	0xbe361394	-0.17780906
81	0x3daf9d82	0.08574964
82	0x3ccc0d5e	0.024908718
83	0x3da4024b	0.0800825
84	0x3e0560f0	0.1302526
85	0x3e6432de	0.2228503
86	0x3c7113c7	0.014714188
87	0xbecbb60b	-0.39787325
88	0xbe375310	-0.1790278
89	0x3dbdf330	0.092749
90	0x3dd30098	0.103028476
91	0xbc7dc6cf	-0.015489294
92	0x3d0d2744	0.034461275
93	0x3de56c5c	0.112023085
94	0xbe41f036	-0.1893929
95	0xbd1d7ef6	-0.038451158
96	0x3df61cb0	0.120171905
97	0x3d1f2d1f	0.03886139
98	0xbdc2fe71	-0.09521187
99	0x3d64a9e8	0.055826098
100	0x3e9d87dd	0.30767718
101	0xbd918b98	-0.071067035
102	0x3d1de917	0.03855237
103	0xbdfd1a7c	-0.12358567
104	0x3e808f17	0.2510917
105	0x3de45176	0.1114835
106	0x3b9e016b	0.0048219464
107	0x3e542809	0.20718397
108	0x3d4f4087	0.050598647
109	0xbe84129e	-0.25795454
110	0xbce23e6c	-0.027617656
111	0xbd0cca78	-0.034372777
112	0xbcbe8c59	-0.023260282
113	0xbe2ecc1a	-0.17070046
114	0x3e960788	0.2930262
115	0xbdb9639f	-0.09052204
116	0x3dfb6967	0.12275963
117	0xbf676f7d	-0.9040449
118	0xbd6733e1	-0.05644596
119	0x3d144c87	0.036205795
120	0xbdbeb0ea	-0.093110874
121	0x3e0575df	0.13033246
122	0xbcbebc07	-0.023283018
123	0x3dec2c0b	0.11531838
124	0xbd4b8d7d	-0.04969548
125	0xbda2e830	-0.079544425
126	0xbd46cdfe	-0.048536293
127	0xbdcfd316	-0.10147683

weight f4 [128, 128]
0	0xbe9beaf1	-0.30452684
1	0xbdb8439b	-0.0899727
2	0xbd9d3eeb	-0.07678016
3	0xbe221ea2	-0.15831998
4	0xbddc0936	-0.10743944
5	0xbe203176	-0.15643868
6	0xbec7eeaa	-0.39049274
7	0xbe3771fc	-0.17914575
8	0xbe7609c2	-0.2402716
9	0xbd580ebd	-0.05274843
10	0xbed4dc6d	-0.41574422
11	0xbe98797e	-0.2978019
12	0xbe75c3a4	-0.24000412
13	0x3d049d97	0.032376852
14	0xbd89fac4	-0.06737283
15	0xbe5864c7	-0.21132194
16	0xbefa9198	-0.48939204
17	0xbe0ba2b3	-0.13636284
18	0x3d10efd9	0.035384987
19	0xbcedd5bc	-0.02903258
20	0xbed5b4dc	-0.41739547
21	0xbda3c4a5	-0.07996491
22	0xbe49a577	-0.19692026
23	0xbdcaea33	-0.09907951
24	0x3dd8c9a1	0.10585333
25	0xbe705af3	-0.23472194
26	0xbce85589	-0.028361099
27	0xbee4c6f6	-0.44683045
28	0x3dc799da	0.09746142
29	0xbcb6c4b7	-0.022310598
30	0xbed5ac15	-0.4173285
31	0xbed9d323	-0.42543897
32	0xbd332728	-0.043738514
33	0xbe140952	-0.1445668
34	0xbe33842b	-0.17530887
35	0xbe4192be	-0.18903634
36	0xbd816b4e	-0.06319295
37	0xbeef8787	-0.46783087
38	0xbca57726	-0.020198416
39	0xbe71c08e	-0.2360861
40	0x3cf43b1c	0.029813342
41	0xbf1e9595	-0.61946994
42	0xbeb283b2	-0.348661
43	0xbf218f5f	-0.6310939
44	0xbf208b30	-0.62712383
45	0xbe6f0f8d	-0.23345776
46	0xbeaf7fd4	-0.34277213
47	0xbd5748cd	-0.052559663
48	0xbd7264db	-0.059178215
49	0xbf21bc65	-0.6317809
50	0xbe8bb394	-0.27285445
51	0xbe87ff2b	-0.26561865
52	0xbe9940e3	-0.29932317
53	0xbeb70dde	-0.35752767
54	0xbead3f96	-0.33837575
55	0xbe499a79	-0.19687833
56	0xbd9f6c9d	-0.07784388
57	0xbe9e0f60	-0.30871105
58	0xbddd128a	-0.10794552
59	0xbe84a50b	-0.25907168
60	0xbeebfe09	-0.4609225
61	0xbe3f15da	-0.1866068
62	0xbe532fd9	-0.20623721
63	0xbebc0bc1	-0.36727718
64	0x3d848d02	0.064722076
65	0x3c0e4ae4	0.0086848475
66	0x3dcf7718	0.10130137
67	0xbd86bc5a	-0.06578894
68	0x3e560b6d	0.20902796
69	0xbd048a21	-0.032358292
70	0x3b3936da	0.0028261454
71	0x3d11323b	0.035448294
72	0xbe4068c1	-0.1878996
73	0xbde2bbe3	-0.11070993
74	0xbe80d3a0	-0.25161457
75	0xbed5ea37	-0.41780254
76	0x3e3ce107	0.18445216
77	0xbf26c9f8	-0.6515193
78	0xbe93c774	-0.28863108
79	0x3e4c1116	0.19928393
80	0x3cda6025	0.026657173
81	0xbf0fc2a7	-0.5615639
82	0xbeb08f21	-0.344842
83	0xbd6048a7	-0.054756787
84	0xbdbf11c1	-0.09329558
85	0xbf0ff260	-0.5622921
86	0xbedb9b25	-0.42891803
87	0xbe23f50e	-0.1601145
88	0xbca194db	-0.0197243
89	0xbdc30720	-0.09522843
90	0x3d8a2be9	0.067466564
91	0xbe70b2bc	-0.23505682
92	0xbdd3e044	-0.1034551
93	0xbeae46fd	-0.34038535
94	0x3c95ed28	0.018301561
95	0x3de04dde	0.10952352
96	0xbcb0d572	-0.021586154
97	0xbf3bf52e	-0.7342099
98	0xbd84b37a	-0.06479545
99	0xbde654e7	-0.112466626
100	0xbebc83ef	-0.36819407
101	0xbe33132a	-0.1748778
102	0xbead5e26	-0.33860892
103	0xbcdba1e2	-0.02681059
104	0xbf92f9bb	-1.1482462
105	0xbef7cc73	-0.4839817
106	0xbe148e3d	-0.14507385
107	0xbf02e607	-0.51132244
108	0x3dd71b36	0.10503237
109	0x3d4f0e53	0.05055077
110	0xbdf6bbce	-0.1204754
111	0xbf2a544b	-0.6653487
112	0xbe4b56ef	-0.19857381
113	0x3d2d99bc	0.04238294
114	0x3d9a77ac	0.07542357
115	0xbe3e6914	-0.18594772
116	0xbf2cc7e4	-0.6749251
117	0xbe0d1675	-0.13778098
118	0xbf12ddc2	-0.57369626
119	0xbe3bad84	-0.1832791
120	0xbe97cd3f	-0.29648778
121	0xbe801467	-0.25015566
122	0xbddf6344	-0.10907605
123	0xbeb85b38	-0.36007094
124	0xbecce915	-0.40021577
125	0xbe645d47	-0.22301207
126	0xbec164c8	-0.37772202
127	0xbe083ecb	-0.13305204
128	0xbdbb07fc	-0.09132382
129	0xbe662b11	-0.22477366
130	0xbeac02f3	-0.33596
131	0x3d70c570	0.05878204
132	0xbd977a01	-0.07396317
133	0xbe47d121	-0.1951337
134	0xbe17c284	-0.14820296
135	0xbe1336c6	-0.14376363
136	0x3d16d14f	0.036820706
137	0xbd8a40fa	-0.067506745
138	0xbf20b447	-0.6277508
139	0xbea716e2	-0.32634646
140	0xbda51a4e	-0.08061658
141	0x3ca26209	0.019822137
142	0xbe81105d	-0.25207797
143	0xbed8b504	-0.42325604
144	0xbe7ba039	-0.24572839
145	0xbb8e407f	-0.0043411846
146	0xbdbf15fc	-0.09330365
147	0xbe945a54	-0.28975165
148	0xbde7a874	-0.11311427
149	0xbdae7289	-0.085179396
150	0x3c86ed4b	0.016470572
151	0xbd420195	-0.04736479
152	0x3deb769a	0.11497231
153	0xbf07b168	-0.53005075
154	0xbdb28ab3	-0.08717861
155	0xbe8439f0	-0.25825453
156	0xbf390c55	-0.7228444
157	0xbd4cd26d	-0.050005365
158	0xbe7b05cf	-0.24513935
159	0xbcbe14be	-0.02320325
160	0xbe4932ca	-0.1964828
161	0xbe7a203c	-0.24426359
162	0xbe630751	-0.2217076
163	0xbe26a97d	-0.16275592
164	0xbd86f49a	-0.06589623
165	0xbe7c4917	-0.24637257
166	0xbeecac86	-0.46225375
167	0xbea71b3f	-0.32637975
168	0xbe316f92	-0.17327717
169	0xbf159c84	-0.5844195
170	0xbe519be0	-0.20469618
171	0x3dc1555c	0.09440109
172	0x3e982095	0.29712358
173	0xbce63961	-0.028103532
174	0xbeb98d59	-0.36240652
175	0xbe9c118c	-0.30482137
176	0xbe8b5487	-0.27212927
177	0x3e3a8ddd	0.18218179
178	0xbecc60aa	-0.399175
179	0x3d19c964	0.037545577
180	0xbe7d6cc8	-0.24748528
181	0xbea007af	-0.31255862
182	0xbdca27c3	-0.09870865
183	0xbe1482b4	-0.14502984
184	0xbe463d27	-0.19359265
185	0xbe6f3429	-0.23359741
186	0x3d58eb69	0.05295888
187	0x3cf6354d	0.030054713
188	0xbe553b54	-0.20823413
189	0xbe3bbb9c	-0.18333286
190	0xbf3964ee	-0.7241963
191	0xbeafda2d	-0.34346142
192	0xbe8e3d4e	-0.27781147
193	0xbdaa62f3	-0.08319654
194	0x3b92f534	0.004484797
195	0xbeceac77	-0.40365955
196	0x3d0db69e	0.034597985
197	0xbe3d81dc	-0.18506569
198	0xbe908e06	-0.28233355
199	0x3dac046c	0.08399281
200	0xbe829809	-0.2550662
201	0x3cd683c1	0.026185872
202	0xbdb1a20c	-0.08673486
203	0xbf275c1f	-0.6537494
204	0x3e2befb9	0.16790666
205	0xbf118eb1	-0.56858355
206	0xbee02267	-0.43776247
207	0x3e1e874a	0.15481296
208	0xbdca8df9	-0.098903604
209	0xba16ef44	-0.0005757699
210	0x3e6202de	0.22071406
211	0xbe802add	-0.25032702
212	0xbdd306da	-0.10304041
213	0xbd3130e2	-0.04325951
214	0xbe6e7c62	-0.23289636
215	0xbed00cb4	-0.40634692
216	0xbdd29c41	-0.10283709
217	0xbed14b46	-0.40877742
218	0x3ce66711	0.028125318
219	0xbf0727d7	-0.52795166
220	0xbf04c638	-0.5186496
221	0xbea2bf17	-0.31786415
222	0xbdf592bb	-0.11990877
223	0x3d5393fb	0.051654797
224	0xbe46f486	-0.19429216
225	0xbdad89b7	-0.08473533
226	0x3d5699fa	0.052392937
227	0xbf3267da	-0.69689715
228	0xbe91e98f	-0.28498504
229	0xbe2375ce	-0.15962908
230	0x3cafab09	0.02144386
231	0xbd1c6707	-0.038184192
232	0xc0311acf	-2.7672613
233	0xbe883ab4	-0.26607287
234	0xbda7ab3a	-0.08186956
235	0xbf047e6f	-0.5175542
236	0xbdb61713	-0.0889112
237	0xbe0dd9e3	-0.13852648
238	0xbdb4b9dd	-0.08824513
239	0x3b58ada7	0.003306249
240	0x3df1be1c	0.118038386
241	0x3db5547d	0.088540055
242	0xbf8165bc	-1.0109172
243	0xbe09f3be	-0.13471887
244	0x3d24b767	0.04021397
245	0xbd8c7440	-0.068581104
246	0x3e6ab302	0.22919849
247	0x3e0bc12c	0.13647908
248	0xbe3f3f1a	-0.18676415
249	0xbe9920a0	-0.29907703
250	0x3e4cf8b1	0.20016743
251	0xbe1476ce	-0.14498445
252	0x3da9abc6	0.08284716
253	0xbe80eb89	-0.251797
254	0x3b8bdc6f	0.004268221
255	0xbe6ce132	-0.2313278

bias f4 [128]
0	0xbe27ace3	-0.16374545
1	0xbd814f07	-0.063139014
2	0xbebe71e5	-0.3719627
3	0xbdbca75a	-0.09211607
4	0xbeff5b9a	-0.49874574
5	0x3ddd50d2	0.10806431
6	0xbe49bdb6	-0.19701275
7	0xbebfabcf	-0.37435767
8	0xbe8c6ad6	-0.2742526
9	0xbebbe674	-0.3669926
10	0xbe23e6c0	-0.16005993
11	0xbceb7588	-0.028742567
12	0xbdb8699a	-0.09004517
13	0xbd7d5b35	-0.06185456
14	0xbe84f9d8	-0.25971866
15	0xbdccacb9	-0.09993882
16	0xbe91430b	-0.28371462
17	0xbea0c072	-0.31396824
18	0xbe6b7b78	-0.22996318
19	0x3e1b7d11	0.15184428
20	0xbd936fc5	-0.07199053
21	0xbea90876	-0.33014268
22	0xbe4b6f47	-0.19866668
23	0xbe31e99a	-0.17374268
24	0xbe64d5ee	-0.22347233
25	0xbf070eb1	-0.5275679
26	0xbee79e2f	-0.45237872
27	0xbe4b1ccb	-0.19835202
28	0xbf55e2a5	-0.8354896
29	0xbeb6748a	-0.35635787
30	0xbe84b58b	-0.25919756
31	0x3e24daf9	0.16099156
32	0xbe12acb9	-0.14323701
33	0xbf4726ec	-0.77793765
34	0xbe018a81	-0.12650491
35	0xbeacd4f1	-0.3375621
36	0xbe0d306d	-0.13788004
37	0xbefe9ce1	-0.49729064
38	0xbe88f545	-0.26749626
39	0xbf0011dd	-0.5002726
40	0xbde9aadd	-0.11409543
41	0xbf0520c7	-0.5200314
42	0xbd56d51b	-0.052449327
43	0xbec62632	-0.38701016
44	0xbdd5b4b1	-0.10434855
45	0xbe44681b	-0.19180338
46	0xbf0c6e8a	-0.5485617
47	0xbe8762b4	-0.26442492
48	0x3d1346b6	0.035956107
49	0xbd9d1612	-0.07670225
50	0x3ac55092	0.0015053919
51	0xbf362596	-0.711511
52	0xbece4b61	-0.40291885
53	0xbe9e19cc	-0.30879056
54	0xbe983606	-0.29728717
55	0x3d8ba553	0.068186425
56	0xbe8b4be4	-0.27206337
57	0xbe031c9e	-0.12803885
58	0x3d2a6d60	0.041608214
59	0xbd9ba28b	-0.07599362
60	0x3d398f74	0.045302823
61	0xbe85da83	-0.26143274
62	0xbdc283e1	-0.0949781
63	0xbe812682	-0.25224692
64	0xbf06a1d8	-0.52590704
65	0x3d54dada	0.051966526
66	0xbe20ee35	-0.15715869
67	0xbe6ac50e	-0.22926733
68	0xbe52b173	-0.20575504
69	0xbf15203e	-0.5825232
70	0xbee5d149	-0.44886234
71	0xbec50f96	-0.38488454
72	0xbcdfb321	-0.027307095
73	0xbe2a4425	-0.16627558
74	0xbdf6d5d8	-0.12052506
75	0xbe966bf0	-0.29379225
76	0xbd040634	-0.03223248
77	0xbf5adfdf	-0.8549785
78	0xbc9a37d3	-0.018825447
79	0xbef5f1e1	-0.480361
80	0xbedfd454	-0.4371668
81	0xbf264a2e	-0.6495694
82	0xbf1a4855	-0.6026662
83	0xbdbb441b	-0.091438495
84	0x3e704b23	0.23466162
85	0xbf17e30a	-0.5933081
86	0xbf1b0d9b	-0.60567635
87	0xbf036443	-0.5132486
88	0xbf04bdd3	-0.5185215
89	0xbe8157a4	-0.25262177
90	0xbe1aeab8	-0.151286
91	0xbea15f70	-0.31518126
92	0xbef6952a	-0.48160678
93	0xbebe61bb	-0.37183937
94	0xbdf5cd67	-0.12002068
95	0xbee4968e	-0.44646114
96	0xbf580e64	-0.8439696
97	0xbe372c50	-0.17887998
98	0xbdbb4bad	-0.091452934
99	0xbf16655d	-0.5874842
100	0x3e14e96f	0.14542173
101	0xbec0acf8	-0.37631965
102	0xbe9baefb	-0.30406937
103	0xbe7d7cd5	-0.24754651
104	0xbdd74973	-0.10512056
105	0xbe1cf5bc	-0.15328115
106	0xbf0a1f32	-0.5395385
107	0xbecc8cef	-0.39951274
108	0xbe10fb2c	-0.14158314
109	0xbef289f8	-0.47370887
110	0xbf702b7d	-0.9381636
111	0xbea86a75	-0.3289372
112	0xbe163d02	-0.1467171
113	0xbe370438	-0.17872703
114	0xbefdcaff	-0.49568936
115	0xbf0b07ca	-0.5430876
116	0xbf040c83	-0.5158159
117	0xbeb7ee93	-0.35924205
118	0x3e39f24d	0.18158837
119	0xbeeb3b2c	-0.45943582
120	0xbf1c31d0	-0.6101351
121	0xbe5ac9c9	-0.21366037
122	0xbf4f346e	-0.80939376
123	0x3df2c952	0.11854805
124	0xbedbaeb2	-0.4290672
125	0xbead2027	-0.33813593
126	0xbe241760	-0.16024542
127	0x3d2945f9	0.041326497

weight f4 [2, 128]
0	0xbd29afe2	-0.0414275
1	0x3dcfeeda	0.10152979
2	0x3de6ee91	0.11275972
3	0xbddc6597	-0.10761564
4	0xbd1c2dbc	-0.038129553
5	0xbe6c75c6	-0.23091802
6	0x3e2207fe	0.15823361
7	0x3d6be093	0.057587218
8	0xbdbf52b8	-0.09341949
9	0x3bfdd53c	0.007746367
10	0xbe1d91f4	-0.15387708
11	0x3e820dd6	0.2540118
12	0xbe783ae0	-0.24241209
13	0x3e02f7cb	0.12789838
14	0x3cd471bd	0.02593314
15	0xbe447d0c	-0.19188327
16	0x3df526a0	0.11970258
17	0x3d8f4183	0.06994917
18	0x3e36bbe6	0.17845115
19	0x3e2f96a3	0.17147307
20	0xbe8d0e59	-0.2755001
21	0xbe0ef32f	-0.13959955
22	0xbd95c142	-0.073122516
23	0xbe42d5ac	-0.19026822
24	0x3e3ce3a5	0.18446214
25	0xbddac2df	-0.106817
26	0x3d05e579	0.032689545
27	0x3d6af481	0.057362083
28	0xbcf13e1c	-0.029448561
29	0xbdbf2733	-0.093336485
30	0xbdf90c8c	-0.12160596
31	0x3da768b2	0.08174266
32	0xbe6ca8e2	-0.23111299
33	0xbd092ce7	-0.033490088
34	0x3e9a36a4	0.30119812
35	0x3caf2588	0.021380201
36	0x3e179334	0.14802247
37	0xbcd78127	-0.026306702
38	0xbda583a5	-0.0808175
39	0x3d907a61	0.07054592
40	0x3e44c6c2	0.19216445
41	0xbdcf3b03	-0.101186775
42	0xbe4f1d37	-0.20225988
43	0xbc12d45b	-0.008961762
44	0xbe964b7b	-0.29354462
45	0x3e1b393f	0.15158556
46	0xba1da5d2	-0.0006013784
47	0x3c7524cd	0.014962387
48	0xbd339bf6	-0.043849908
49	0xbe8c837b	-0.27444062
50	0x3ece7d7d	0.40330115
51	0xbdc29a98	-0.09502143
52	0xbd91878d	-0.071059324
53	0x3dbd8207	0.092533164
54	0x3e434197	0.1906799
55	0xbd1e751f	-0.038685914
56	0x3b075b0b	0.002065363
57	0x3e5b05c2	0.21388915
58	0xbe2090be	-0.15680215
59	0x3e051161	0.12994911
60	0xbd87ce6b	-0.06631168
61	0x3ea1ac49	0.31576756
62	0x3e047fa3	0.12939315
63	0x3e38fc3a	0.18064967
64	0xbc76b345	-0.01505739
65	0x3de06d84	0.109583884
66	0x3d92e401	0.071723945
67	0xbe4c1c4b	-0.19932668
68	0xbeb2b0d5	-0.34900537
69	0xbe004ed8	-0.12530077
70	0x3d56b01f	0.052414056
71	0xbcd5ec21	-0.026113572
72	0xbdd3464e	-0.10316144
73	0xbe19a855	-0.1500562
74	0xbe5058be	-0.20346352
75	0x3dfedbfe	0.12444304
76	0xbd8e088a	-0.069352224
77	0xbce802d2	-0.028321657
78	0x3ddbb15a	0.107271865
79	0x3c47b1c0	0.012188375
80	0xbde3139a	-0.11087723
81	0x3d1b5360	0.03792131
82	0xbe12a387	-0.14320193
83	0xbe0974a1	-0.13423397
84	0x3e1f60c8	0.15564263
85	0xbdcbce42	-0.0995145
86	0xbc9fc15b	-0.019501379
87	0xba6a5d80	-0.0008940324
88	0x3dc2bf6d	0.09509168
89	0x3dd3c610	0.10340512
90	0xbe3196af	-0.17342637
91	0xbe1c081f	-0.15237473
92	0xbdbdb9c4	-0.092639476
93	0xbdddb1a1	-0.10824896
94	0x3eaa02b8	0.332052
95	0x3daf5aff	0.08562278
96	0xbd483592	-0.048879214
97	0xbe28bcdf	-0.16478299
98	0xbe1ae550	-0.15126538
99	0xbd408e48	-0.04701069
100	0xbd87d827	-0.06633025
101	0xbc7117e9	-0.014715173
102	0xbd88ada9	-0.06673748
103	0xbe3a16b2	-0.1817272
104	0xbe134ede	-0.14385554
105	0xbe078797	-0.13235317
106	0x3c186d15	0.009303351
107	0x3bf95f1a	0.007610214
108	0x3e7463ff	0.2386627
109	0xbe44a33a	-0.19202891
110	0x3d77e96a	0.060525335
111	0xbe029247	-0.12751113
112	0x3d7ad843	0.0612414
113	0xbd2d46a2	-0.04230369
114	0x3dab8c84	0.083764106
115	0xbd9f12ed	-0.07767282
116	0x3e0e2b22	0.13883641
117	0xbe15305c	-0.14569229
118	0xbe15a8c1	-0.14615156
119	0xbdc34348	-0.09534317
120	0xbdede183	-0.116152786
121	0xbe39631f	-0.18104218
122	0xbcad070d	-0.021121526
123	0x3dd43ee3	0.10363557
124	0xbd98d1a8	-0.07461864
125	0xbd0ea302	-0.034823425
126	0xbd9bd988	-0.0760985
127	0x3d870df0	0.06594455
128	0xbe8021f6	-0.2502591
129	0x3e282255	0.16419347
130	0xbcae726d	-0.021294797
131	0xbe971954	-0.2951151
132	0x3d54d870	0.051964223
133	0xbed8e765	-0.4236404
134	0x3e036e31	0.12835003
135	0x3df45f10	0.11932194
136	0x3d13f3be	0.036121123
137	0xbda486ac	-0.08033499
138	0xbe57757c	-0.2104091
139	0x3d104447	0.035221364
140	0xbe7e49d0	-0.24832845
141	0x3e8ebc6d	0.27878132
142	0x3cd45a6a	0.025922019
143	0x3eb77496	0.35831136
144	0x3de4575d	0.11149476
145	0x3d3bee18	0.04588136
146	0x3e31cfe0	0.17364454
147	0x3e88c51f	0.2671289
148	0x3e05538b	0.1302015
149	0x3dee74f1	0.116433986
150	0xbe789a4d	-0.24277611
151	0xbe7d4026	-0.24731502
152	0xbdb910ce	-0.09036408
153	0xbd966a21	-0.07344461
154	0x3d9c7e68	0.076412976
155	0x3e29a76b	0.16567771
156	0xbcd08d6e	-0.025458064
157	0xbe02da7b	-0.12778656
158	0xbea01447	-0.3126547
159	0xbd498375	-0.049197633
160	0xbe6d97c0	-0.2320242
161	0xbcd49abb	-0.025952687
162	0xbd163abb	-0.036677103
163	0xbda80e32	-0.082058325
164	0x3e5ddf68	0.21667254
165	0x3d61193a	0.0549557
166	0x3d830527	0.06397467
167	0x3cf0888b	0.029361984
168	0x3e260f41	0.16216756
169	0xbd91b06a	-0.071137264
170	0x3e65f588	0.22456944
171	0xbdc6f992	-0.097155705
172	0x3d09503e	0.03352379
173	0xbd200193	-0.039064
174	0x3ce42120	0.027847826
175	0x3e36badc	0.17844719
176	0x3d954017	0.07287615
177	0x3e5e191f	0.2168927
178	0xbd6895b3	-0.05678339
179	0xbcd42d8f	-0.02590063
180	0xbe2cf487	-0.16890155
181	0x3e04f296	0.12983164
182	0xbdf31bac	-0.11870512
183	0x3e92b904	0.2865678
184	0x3dc35351	0.09537376
185	0x3c908b9a	0.017644692
186	0xbecf4432	-0.40481716
187	0xbdb9f35b	-0.090796195
188	0xbe38ddec	-0.18053406
189	0xbd079ba9	-0.033107433
190	0x3e4d8e85	0.20073898
191	0x3d2d8357	0.042361584
192	0xbe537d2e	-0.20653221
193	0x3e927bc4	0.2861005
194	0xbdfe2029	-0.12408478
195	0xbe861c26	-0.2619335
196	0xbe14c283	-0.14527325
197	0xbe1c319d	-0.15253301
198	0x3d79a5e6	0.06094923
199	0x3a07a33e	0.0005174166
200	0x3c07783c	0.008268412
201	0xbe89e1cb	-0.2693008
202	0xbe903cd1	-0.281714
203	0xbdbf568b	-0.09342679
204	0xbe52c620	-0.20583391
205	0xbdeb370c	-0.11485109
206	0x3e4633cc	0.19355696
207	0xbd93b6ba	-0.07212587
208	0xbdc25014	-0.0948793
209	0x3cfe7727	0.031062676
210	0x3c0b5055	0.008503039
211	0xbea0644c	-0.3132652
212	0x3ec84dd0	0.39121866
213	0xbd78102a	-0.06056229
214	0xbc294975	-0.010332455
215	0xbd552aeb	-0.052042883
216	0xbcd60be4	-0.026128717
217	0xbd88dd3e	-0.066828236
218	0xbe7044f8	-0.2346381
219	0x3d26a1d4	0.040681675
220	0xbe364776	-0.17800698
221	0xbdc76405	-0.09735874
222	0x3d44049f	0.04785597
223	0xbe5c82bd	-0.21534248
224	0xbe573c69	-0.21019138
225	0x3d80eefa	0.06295581
226	0x3e66da64	0.22544247
227	0xbdce3273	-0.10068216
228	0xbe4fc631	-0.20290448
229	0x3ded948b	0.11600598
230	0x3e0984fb	0.13429634
231	0x3de7bd55	0.11315409
232	0xbd0ed627	-0.0348722
233	0xbe1d1d88	-0.15343297
234	0xbd3b3ac6	-0.045710348
235	0x3d1ac5e4	0.03778638
236	0x3da77ace	0.0817772
237	0xbe364934	-0.17801362
238	0xbd06b4d6	-0.032887302
239	0xbc12e14c	-0.008964848
240	0x3d40a058	0.047027916
241	0x3d9b2aad	0.07576499
242	0x3e446cdb	0.1918215
243	0x3cbc57bf	0.02299106
244	0x3ca2f458	0.019891903
245	0x3e4f5614	0.2024768
246	0xbe9e390a	-0.30902892
247	0xbca2665a	-0.019824196
248	0x3d9f2ab3	0.07771816
249	0x3e872a90	0.2639966
250	0xbd84c6de	-0.064832434
251	0x3e922aec	0.28548372
252	0xbcdc8d94	-0.026922978
253	0xbdbbb960	-0.09166217
254	0xbd2a368e	-0.041555934
255	0x3ea05989	0.3131831

bias f4 [2]
0	0xbc2ecdac	-0.010669153
1	0xbc554412	-0.0130167175
